…
n class="o"&gt;=&lt;/span&gt;&lt;span class="s1"&gt;&amp;#39;upper left&amp;#39;&lt;/span&gt;&lt;span class="p"&gt;)&lt;/span&gt;
&lt;span class="n"&gt;plt&lt;/span&gt;&lt;span class="o"&gt;.&lt;/span&gt;&lt;span class="n"&gt;show&lt;/span&gt;&lt;span class="p"&gt;()&lt;/span&gt;
&lt;/pre&gt;&lt;/div&gt;


&lt;div class="highlight"&gt;&lt;pre&gt;&lt;span&gt;&lt;/span&gt;_________________________________________________________________
Layer (type)                 Output Shape              Param #   
=================================================================
dropout_3 (Dropout)          (None, 5000)              0         
_________________________________________________________________
dense_2 (Dense)              (None, 1000)              5001000   
_________________________________________________________________
dropout_4 (Dropout)          (None, 1000)              0         
_________________________________________________________________
dense_3 (Dense)              (None, 500)               500500    
_________________________________________________________________
dropout_5 (Dropout)          (None, 500)               0         
_________________________________________________________________
dense_4 (Dense)              (None, 250)               125250    
_________________________________________________________________
dropout_6 (Dropout)          (None, 250)               0         
_________________________________________________________________
dense_5 (Dense)              (None, 8)                 2008      
=================================================================
Total params: 5,628,758
Trainable params: 5,628,758
Non-trainable params: 0
_________________________________________________________________
Train on 14169 samples, validate on 3543 samples
Epoch 1/10
14169/14169 [==============================] - 235s 17ms/step - loss: 4.1414 - acc: 0.3485 - val_loss: 2.2931 - val_acc: 0.3796
…
n class="o"&gt;=&lt;/span&gt;&lt;span class="s1"&gt;&amp;#39;upper left&amp;#39;&lt;/span&gt;&lt;span class="p"&gt;)&lt;/span&gt;
&lt;span class="n"&gt;plt&lt;/span&gt;&lt;span class="o"&gt;.&lt;/span&gt;&lt;span class="n"&gt;show&lt;/span&gt;&lt;span class="p"&gt;()&lt;/span&gt;
&lt;/pre&gt;&lt;/div&gt;


&lt;div class="highlight"&gt;&lt;pre&gt;&lt;span&gt;&lt;/span&gt;_________________________________________________________________
Layer (type)                 Output Shape              Param #   
=================================================================
dropout_2 (Dropout)          (None, 5000)              0         
_________________________________________________________________
dense_1 (Dense)              (None, 1000)              5001000   
_________________________________________________________________
dropout_3 (Dropout)          (None, 1000)              0         
_________________________________________________________________
dense_2 (Dense)              (None, 500)               500500    
_________________________________________________________________
dropout_4 (Dropout)          (None, 500)               0         
_________________________________________________________________
dense_3 (Dense)              (None, 250)               125250    
_________________________________________________________________
dense_4 (Dense)              (None, 8)                 2008      
=================================================================
Total params: 5,628,758
Trainable params: 5,628,758
Non-trainable params: 0
_________________________________________________________________
Train on 14169 samples, validate on 3543 samples
Epoch 1/100
14169/14169 [==============================] - 39s 3ms/step - loss: 7.0981 - acc: 0.4782 - val_loss: 2.0088 - val_acc: 0.4773
…
